model.pth (torch, 14589 bytes, 5 tensors)

network.0.weight f4 [64, 12]
0	0xbf86f481	-1.0543367
1	0xbfbe41b5	-1.4863802
2	0xbe727d4f	-0.23680614
3	0xbe900e9f	-0.28136155
4	0xbf25a9f3	-0.64712447
5	0xbff58315	-1.9180628
6	0xbf6c54be	-0.92316806
7	0x3de01192	0.10940851
8	0x3f512c5e	0.81708324
9	0x3fb9a593	1.4503654
10	0xbfc812fa	-1.5630791
11	0xbf0e4e81	-0.5558854
12	0x4015f549	2.343096
13	0xbf6da83a	-0.9283482
14	0xbfc33c32	-1.5252745
15	0x3eeccf2b	0.46251807
16	0x3ffb18dd	1.9616963
17	0x3e70e3f8	0.23524463
18	0x402b2d58	2.6746426
19	0x3f90e439	1.1319648
20	0xbf8dcdb6	-1.1078403
21	0x3f8f1633	1.117865
22	0xbf42f6bf	-0.76157755
23	0xbf3e044a	-0.74225295
24	0x3d68c961	0.056832675
25	0x4068f352	3.639851
26	0xc04859f0	-3.1304893
27	0x3f8eca64	1.1155515
28	0xc022feef	-2.54681
29	0x3fd2b549	1.6461574
30	0xbf35c040	-0.70996475
31	0xbf21f631	-0.63266283
32	0x3ed6e185	0.41968933
33	0x3fb33ee7	1.4003571
34	0xbe315f4d	-0.1732151
35	0xbf5c2892	-0.85999405
36	0xbfe44849	-1.783456
37	0xbefa04f4	-0.48831904
38	0x3e04dbd8	0.12974489
39	0x400cf8fa	2.2026963
40	0xbfda338b	-1.704698
41	0x3fb4cb3a	1.412452
42	0xbea1c93e	-0.31598848
43	0xbed1475f	-0.40874764
44	0x3ff75950	1.9324131
45	0xbf0174da	-0.50568926
46	0x3ef7efb1	0.48425058
47	0x3e17c0f9	0.14819707
48	0x3eee283d	0.46515074
49	0xbd5d782b	-0.05406968
50	0xbf7e99c1	-0.9945336
51	0xbea8e345	-0.32985893
52	0xc06cfcdb	-3.702933
53	0x3e993267	0.29921266
54	0x3e501ea4	0.20324188
55	0xbe2b28a6	-0.16714725
56	0xbe409881	-0.18808176
57	0xbf31cf43	-0.6945688
58	0x3fdbc4b6	1.7169406
59	0xbff8588c	-1.9402022
60	0x3d898112	0.06714071
61	0x3eae8d4a	0.3409217
62	0xbe8ded64	-0.27720177
63	0x3e5a9901	0.21347429
64	0xc08bfb36	-4.3744154
65	0x3ec4e7ac	0.38458002
66	0xbeb8bfa3	-0.36083707
67	0x3e4ba99a	0.19888917
68	0x3e340c3b	0.1758279
69	0xc00aa0f3	-2.1660736
70	0x3fe1a55e	1.7628591
71	0x3e75b435	0.23994525
72	0x3e3e48ef	0.1858251
73	0x401600a8	2.34379
74	0xbe496b2e	-0.19669792
75	0x4017eb73	2.3737457
76	0xbec07bd6	-0.3759448
77	0x3f80c641	1.0060502
78	0x3fb44ceb	1.4085974
79	0xbe324a36	-0.17411122
80	0x3fb3a9e4	1.4036222
81	0x3e80b232	0.25135952
82	0xbf5c180a	-0.8597418
83	0x3fbca983	1.4739231
84	0xbf41766b	-0.75571316
85	0xbf0b3094	-0.54371
86	0xc04353ab	-3.0519817
87	0x3e0a3f09	0.13500609
88	0xbf835783	-1.0261081
89	0x3eb15f2f	0.34642932
90	0x3fad5ed4	1.3544564
91	0x4007f953	2.1245925
92	0xbf353094	-0.7077725
93	0x3f96bb97	1.1775998
94	0xbe8545ab	-0.26029715
95	0xc004acd7	-2.0730493
96	0x3f8f0540	1.1173477
97	0xbed73408	-0.42031884
98	0xbecc8401	-0.3994446
99	0xbf9a06ed	-1.2033364
100	0x3f8c89a5	1.0979506
101	0x401c56b4	2.442792
102	0xbf0a8ae5	-0.54118186
103	0xbfb12208	-1.383851
104	0xbf8d99b7	-1.1062535
105	0x3eb1f52f	0.34757373
106	0xbfee54d0	-1.8619633
107	0x3f4f5eb6	0.8100389
108	0xbf61b195	-0.88161594
109	0xbf0a4b36	-0.5402101
110	0xbfebdbd5	-1.8426462
111	0xbeaaf44d	-0.33389512
112	0x402f1806	2.7358413
113	0x4026097d	2.594329
114	0x3fbb6eef	1.4643229
115	0xbeca93d2	-0.39565903
116	0xbf4e5fc6	-0.8061489
117	0x3f33b582	0.70198834
118	0xbe34eccb	-0.17668454
119	0xbe05bf56	-0.1306127
120	0x400fb0be	2.2451625
121	0x3fe3e914	1.7805505
122	0xc02807ea	-2.625483
123	0x3f1ba91f	0.60804933
124	0xbf9c1f24	-1.2197003
125	0xbfa962f3	-1.3233322
126	0xbf435057	-0.76294464
127	0x3f4407ca	0.76574385
128	0xbfc65fd5	-1.5497996
129	0x3f99cf44	1.2016377
130	0xbfc517f9	-1.5397941
131	0xbf05a133	-0.52199095
132	0xbf39f32a	-0.72636664
133	0xbf290caa	-0.6603495
134	0xbff01934	-1.8757691
135	0x3fe558a1	1.7917672
136	0x3f08b9ac	0.5340831
137	0xbf13be15	-0.5771192
138	0x4005e150	2.091877
139	0x3f6d35d4	0.9266026
140	0xbf28688b	-0.6578452
141	0x3fa00964	1.2502866
142	0xbf8f0a9c	-1.1175113
143	0xbe95d9e3	-0.29267797
144	0xbf04d46f	-0.5188665
145	0xbf1dcfa3	-0.61644953
146	0xc083bbd4	-4.116678
147	0xbfc2c27e	-1.5215604
148	0x3f3ac7ee	0.7296132
149	0xbe67494d	-0.22586556
150	0xbe18590a	-0.14877716
151	0x3f683017	0.9069838
152	0xbe5678f9	-0.20944585
153	0x3e0d6c2a	0.13810793
154	0xbf14d981	-0.58144385
155	0x3f089048	0.53345156
156	0xbdb88645	-0.09009985
157	0xbfc42fd7	-1.53271
158	0x3f6d0807	0.92590374
159	0xbf64dcc3	-0.89399356
160	0x3ee5d845	0.44891563
161	0x3f0c884a	0.5489546
162	0x401ab03d	2.4170067
163	0x3ecb525f	0.39711282
164	0x3fac0b3f	1.3440932
165	0xbfa41e52	-1.2821753
166	0xbee57372	-0.4481464
167	0x3fd5d81a	1.6706574
168	0x4016fb50	2.359089
169	0x3f0df0c3	0.554455
170	0xc060a089	-3.5097983
171	0x3f3ad82d	0.7298611
172	0x3fc25b15	1.5184046
173	0x3d966ca4	0.0734494
174	0x40166396	2.3498282
175	0xbf824d2a	-1.0179799
176	0xbe2eaa2d	-0.17057104
177	0x3fa045d5	1.2521311
178	0xbfa2d246	-1.272042
179	0x3ed7f9ff	0.4218292
180	0xbec16803	-0.37774667
181	0xbfb08ba5	-1.3792616
182	0xbfa00886	-1.2502601
183	0x3d5d4ecc	0.054030225
184	0x3ee5fbf6	0.44918793
185	0x3e62372a	0.22091356
186	0x3fad6e9b	1.3549379
187	0x3f36bef3	0.71385115
188	0xc000198e	-2.0015597
189	0x3f883ca3	1.0643505
190	0x3e39c87d	0.18142886
191	0xbf8f6fd9	-1.1206008
192	0xc0250b65	-2.5788205
193	0xbe23577e	-0.15951344
194	0xc007085f	-2.109886
195	0xbf7c50b9	-0.98560673
196	0xbf463654	-0.7742665
197	0x3ed96665	0.42460933
198	0x3d5b8966	0.05359783
199	0x3fb21f53	1.3915809
200	0xbf8d0e09	-1.1019908
201	0x3ed24582	0.41068655
202	0xbd9f911f	-0.077913515
203	0x3eab7061	0.33484176
204	0x3e56cec5	0.20977314
205	0xbf0a2ebc	-0.5397756
206	0xc02f0dc5	-2.7352154
207	0x40095a29	2.146128
208	0xbea5c475	-0.32376447
209	0xbf6cf8ba	-0.92567027
210	0x3eb278b1	0.34857705
211	0x3bbf84be	0.0058446815
212	0xbec7e164	-0.39039147
213	0x3a10b030	0.0005519418
214	0xc017e3bc	-2.3732748
215	0x3f8b268b	1.0871137
216	0x3f79b932	0.9754821
217	0xbfd27873	-1.6443008
218	0xbf6a6938	-0.915668
219	0x4035a224	2.8380213
220	0xc003c765	-2.059045
221	0xc030409d	-2.7539437
222	0xbf08fda4	-0.53512025
223	0xbd25cd4d	-0.040478993
224	0x3fdd2cfc	1.7279353
225	0xbf2bc069	-0.6709047
226	0xbe2687b6	-0.16262707
227	0x3f5aca4b	0.85464925
228	0xbe7effd6	-0.24902281
229	0x3f4de9e3	0.8043501
230	0x3fbdc799	1.4826537
231	0xbf8f9e6e	-1.1220224
232	0xbe3e4a51	-0.18583037
233	0x3e355a51	0.17710234
234	0xbf39d1e2	-0.7258588
235	0x40432910	3.0493813
236	0xbf1ff504	-0.6248324
237	0x3f157285	0.5837787
238	0xbfbd9713	-1.4811729
239	0x3f24f570	0.6443701
240	0x3fb8868f	1.4416064
241	0x3f00c65a	0.5030266
242	0x3ff0aa20	1.8801918
243	0x3f56e1b5	0.8393815
244	0xbf7c6ffe	-0.98608387
245	0x3e73e2c4	0.23816973
246	0x3ef4e371	0.47829774
247	0xbe15b507	-0.14619838
248	0xbf744b2d	-0.9542721
249	0x3f44bf3a	0.7685429
250	0x3e767295	0.24067147
251	0xbf108379	-0.5645061
252	0x3f17c314	0.5928204
253	0x401280c2	2.2891088
254	0xbf1ce169	-0.6128145
255	0xbefc7f91	-0.49316075

network.0.bias f4 [64]
0	0xbf0daeb3	-0.55344695
1	0xc07d6219	-3.9591124
2	0xbeac52b6	-0.33656853
3	0xc05f94f3	-3.4934661
4	0xc00dcb8e	-2.215549
5	0xc04c8380	-3.1955261
6	0xc01daec0	-2.463791
7	0xc01eb0ca	-2.4795403
8	0xc075c844	-3.8403482
9	0xc05d668d	-3.4593842
10	0xbfe0d58f	-1.7565173
11	0xc085c932	-4.18081
12	0xc0867eaf	-4.2029643
13	0xc025458a	-2.5823693
14	0xbf81e223	-1.0147136
15	0xc086a91d	-4.2081437
16	0xc0802b11	-4.005257
17	0x3f27858f	0.6543817
18	0xbfec91de	-1.8482015
19	0xc015ef1d	-2.3427193
20	0xc05955ec	-3.3958693
21	0xc09d9fa8	-4.9257393
22	0xbf88021a	-1.0625641
23	0xc077f7d0	-3.8745003
24	0xc03062f7	-2.7560403
25	0xc040c793	-3.012181
26	0xc0a0e483	-5.0278945
27	0xc054b118	-3.323309
28	0xbed23b32	-0.41060787
29	0xbe9fdf28	-0.31224942
30	0xc07dd5dc	-3.966178
31	0xc014340f	-2.3156774
32	0xbedc533c	-0.43032253
33	0xc0886d05	-4.263308
34	0xc0760679	-3.844145
35	0xc02af729	-2.6713355
36	0xc09bced1	-4.868996
37	0xbf8c8709	-1.097871
38	0xc08af06b	-4.341848
39	0xbf9979a3	-1.1990246
40	0xbfb0575e	-1.3776662
41	0x3fa95627	1.3229417
42	0xc08210b6	-4.06454
43	0xc0a43396	-5.131297
44	0xc005d747	-2.0912645
45	0xc05a7b51	-3.4137766
46	0xc0960a25	-4.6887383
47	0xc05ca803	-3.4477546
48	0xc07d26f0	-3.9555016
49	0xbfe633b2	-1.7984526
50	0xc005f856	-2.0932822
51	0xc07412b0	-3.8136406
52	0x3e8d5648	0.2760489
53	0xbfcbbea9	-1.591756
54	0xc0662660	-3.5960922
55	0xc0a40806	-5.1259794
56	0x3f87599f	1.0574225
57	0xc0638ec6	-3.5555892
58	0xc0804538	-4.0084496
59	0xc016e240	-2.3575592
60	0xc043e074	-3.0605745
61	0xc03d4bd9	-2.9577544
62	0xc0138e50	-2.305561
63	0xc0411cc4	-3.0173807

network.2.weight f4 [32, 64]
0	0xbf88075b	-1.0627245
1	0xbc15fc87	-0.0091544455
2	0xbf70dab6	-0.94083726
3	0xbf8e88be	-1.113548
4	0xbf74546c	-0.9544132
5	0xbe84cb7b	-0.25936493
6	0xbec4a049	-0.38403538
7	0xbde837cc	-0.113387674
8	0xbefd09cb	-0.49421534
9	0xbf185f72	-0.5952064
10	0xbe9d13b3	-0.30679092
11	0xbd2eb1a7	-0.04264989
12	0xbe2a540b	-0.16633622
13	0xbda325c2	-0.07966186
14	0xbf171c48	-0.5902753
15	0xbcec1772	-0.028819773
16	0xbd23825b	-0.03991924
17	0xbf063dcc	-0.52438045
18	0xbea11fb5	-0.31469503
19	0xbe0a1b29	-0.13486923
20	0xbe6e6dac	-0.23284024
21	0xbe728681	-0.23684122
22	0x3d06e6aa	0.032934822
23	0xbe981d45	-0.2970983
24	0xbd90ce71	-0.070706256
25	0xbe71643a	-0.2357339
26	0xbad242d4	-0.0016041645
27	0x3d0cea70	0.034403265
28	0xbf161e14	-0.58639646
29	0xbf4b72e1	-0.79472166
30	0xbe0a8780	-0.13528252
31	0xbf8ab65b	-1.08369
32	0xbf3d3501	-0.73909
33	0xbe9153cd	-0.28384247
34	0x3d6a7022	0.057235844
35	0xbf4b5d34	-0.7943909
36	0x3b92480c	0.004464155
37	0xbf43b875	-0.76453334
38	0xbe328474	-0.1743334
39	0xbf29e586	-0.6636585
40	0x3d411a64	0.04714431
41	0xbf4db5a5	-0.8035529
42	0x3e38110e	0.17975256
43	0xbf3554a2	-0.70832264
44	0xbeb043c4	-0.344267
45	0xbf0036dc	-0.5008371
46	0x3c902bc0	0.017598987
47	0xbe9d17a1	-0.3068209
48	0xbea0f886	-0.31439608
49	0xbc278d35	-0.0102265375
50	0xbe546e91	-0.20745303
51	0xbf2f0e5e	-0.683813
52	0x3d0c94a0	0.034321427
53	0xbe6526d9	-0.223781
54	0xbdfbc59d	-0.12293551
55	0xbe420bc0	-0.18949795
56	0xbf53a0cc	-0.8266723
57	0xbe8dab54	-0.27669775
58	0xbeb9522c	-0.36195505
59	0x3c8b8282	0.017030004
60	0xbeafed5a	-0.34360772
61	0xbec8f3b8	-0.39248443
62	0xbf547f0b	-0.8300635
63	0xbde1f071	-0.11032189
64	0x3f3b9347	0.732716
65	0x3f165cc2	0.5873529
66	0xc03a889a	-2.9145875
67	0x3fac8b13	1.3479942
68	0x3f97dc64	1.1864133
69	0xbf23bc71	-0.63959414
70	0xbfac73b3	-1.3472809
71	0xbfbd88fc	-1.4807429
72	0x3fd46d70	1.6595898
73	0xbf2af8a8	-0.6678567
74	0x3f39e485	0.7261432
75	0xbfbf3bee	-1.4940164
76	0xbf211ed8	-0.6293769
77	0x3f416c4f	0.7555589
78	0xc053f484	-3.311799
79	0x3dd338a9	0.103135414
80	0x400b178b	2.173312
81	0xc0644679	-3.5668013
82	0xc028abc1	-2.635483
83	0xc01a9e38	-2.415907
84	0x3fc12804	1.5090337
85	0x3e678df3	0.22612743
86	0xbe4e7bc2	-0.20164397
87	0xbf3d9b2c	-0.740649
88	0xc00b9a77	-2.1813028
89	0xbdf1dfec	-0.11810288
90	0x3f600b33	0.8751709
91	0xc02bbe8b	-2.6835048
92	0x3e278096	0.16357645
93	0xbdf4b830	-0.119491935
94	0x3f441220	0.76590157
95	0xbf208a38	-0.62710905
96	0xbf833e9c	-1.0253482
97	0xbf11a1b4	-0.56887364
98	0x3d29f2c0	0.04149127
99	0x3fa6ae70	1.3021984
100	0xbe4232e5	-0.18964727
101	0xbf495f25	-0.78660804
102	0xbe33c16c	-0.17554253
103	0x3fa45aab	1.284017
104	0xbf908fe6	-1.1293914
105	0xc01e55ad	-2.4739792
106	0x3f7e0c87	0.99237865
107	0xc039d895	-2.903844
108	0xc004ecc1	-2.0769503
109	0xbf5fd2b3	-0.87430876
110	0x3e2fbd13	0.1716197
111	0xc0174a93	-2.3639266
112	0x3f9074bd	1.1285626
113	0xbf1474f7	-0.57990974
114	0xbf5c3bfb	-0.8602902
115	0xc05fb0e5	-3.4951718
116	0xbf658660	-0.89658165
117	0xbfbc6b57	-1.4720258
118	0x3f4f57ef	0.8099355
119	0x40037464	2.053979
120	0xc03c1928	-2.9390354
121	0xbefa2d95	-0.488629
122	0xbeb9cf95	-0.36291185
123	0xbfae8466	-1.3634155
124	0xbfc02c13	-1.501345
125	0x3fecd0da	1.8501236
126	0x3b7a018f	0.0038147902
127	0xbd873492	-0.06601824
128	0xbd9aca53	-0.075581215
129	0xbdcba4fe	-0.09943579
130	0xbe219ceb	-0.15782516
131	0x3c390555	0.011292775
132	0x3d0ec7ac	0.03485839
133	0xbcac5b16	-0.021039527
134	0x3ce98d8a	0.028509874
135	0xbd940d1b	-0.07229062
136	0xbdc444fc	-0.0958347
137	0xbd1e617f	-0.0386672
138	0xbd23e767	-0.040015604
139	0x3cf126a7	0.029437376
140	0xbe48dace	-0.19614717
141	0xbe142a24	-0.144692
142	0xbc62a544	-0.013833348
143	0xbdd06a0d	-0.101764776
144	0xbe470656	-0.1943601
145	0xbdbc51de	-0.091953024
146	0xba956839	-0.0011398859
147	0x3ce7ded5	0.028304497
148	0xbd87978c	-0.06620702
149	0xbe43adbd	-0.19109245
150	0xbe32e06b	-0.17468421
151	0xbd769530	-0.06020087
152	0xbe1b76c9	-0.15182032
153	0xbe085d91	-0.13316943
154	0x3d01e4cd	0.031712342
155	0xbe4676b3	-0.19381218
156	0xbdb66631	-0.0890621
157	0xbdb66147	-0.08905273
158	0xbe25358b	-0.16133706
159	0x3bc384d7	0.0059667635
160	0xbe2ee49f	-0.170794
161	0xbe3110e7	-0.17291604
162	0xbd74b492	-0.059742518
163	0xbd89c482	-0.06726934
164	0xbe17de63	-0.14830928
165	0xbe0351b4	-0.12824136
166	0xbe10be10	-0.14135003
167	0xbdb95b96	-0.09050672
168	0xbd708571	-0.05872101
169	0xbcbbc0be	-0.022919055
170	0xbd6aa908	-0.057290107
171	0xbbff6811	-0.007794388
172	0xbd53f8ae	-0.05175083
173	0xbe0594f2	-0.130451
174	0xbdf609ac	-0.120135635
175	0xbd8c1cbd	-0.06841419
176	0xbe2d81b9	-0.16944017
177	0x3d65b706	0.056082748
178	0x3d1e253b	0.038609724
179	0x3d14531f	0.036212083
180	0xbc808bc3	-0.015691644
181	0x3cfba844	0.030719884
182	0xbc1dfb3b	-0.009642418
183	0xbe4ddcfb	-0.20103829
184	0xbe14c0b3	-0.14526634
185	0xbcd7adb4	-0.026327945
186	0x3ca8c906	0.020603668
187	0xbc54521d	-0.01295903
188	0xbc87dfc2	-0.016586188
189	0xbe535f58	-0.2064184
190	0xbd972f7e	-0.07382105
191	0xbde62840	-0.11238146
192	0xbcced2ef	-0.025247065
193	0xbddaebe5	-0.106895246
194	0xbe51b19f	-0.20477913
195	0xbe483141	-0.19550039
196	0xbdd47290	-0.103734136
197	0xbdaad4ac	-0.08341345
198	0xbe09e0d4	-0.13464671
199	0xbe47c437	-0.19508444
200	0xbe1d79e6	-0.15378532
201	0xbdeb3a7c	-0.114857644
202	0xbd342c9d	-0.04398786
203	0xba96ddc6	-0.0011510185
204	0xbdc0b8b1	-0.09410227
205	0xbe826edb	-0.254752
206	0xbdce2c10	-0.10066998
207	0xbcb2cdc4	-0.021826632
208	0x3c6d3473	0.014477837
209	0x3d01eed8	0.03172192
210	0xbc08c020	-0.008346587
211	0xbc0da419	-0.008645081
212	0x3ba11a3c	0.0049164575
213	0xbd7a2d5e	-0.06107842
214	0xbd90cb7f	-0.07070064
215	0xbd36941a	-0.044574834
216	0xbd903965	-0.07042197
217	0xbe48b1a7	-0.19599019
218	0xbe2a7975	-0.16647895
219	0xbdbd3ff9	-0.092407174
220	0xbbdca065	-0.0067329877
221	0xbda5fdbd	-0.08105037
222	0xbe01cd80	-0.12676048
223	0xbe2ff25f	-0.17182301
224	0xbcf69efc	-0.030105107
225	0xbe364511	-0.17799784
226	0xbd0320f9	-0.032013867
227	0xbcbaa5e9	-0.02278419
228	0xbde735a4	-0.11289528
229	0x3c8a6279	0.016892659
230	0x3c580778	0.013185374
231	0xbd7df44a	-0.06200055
232	0xbd490f38	-0.04908678
233	0xbd1aa378	-0.037753552
234	0x3d1e054f	0.03857928
235	0xbdf7a05f	-0.12091135
236	0x3ac67d78	0.0015143594
237	0xbe718dca	-0.23589244
238	0xbbdf22a9	-0.0068095517
239	0x3d1407e4	0.036140338
240	0xbd7b3d60	-0.06133783
241	0xbde4db1a	-0.11174603
242	0xbe38fbcc	-0.18064803
243	0xbda49dc0	-0.08037901
244	0xbd5db65a	-0.054128982
245	0xbc6e379a	-0.014539624
246	0xbdd7ac22	-0.105308786
247	0xbd535274	-0.051592305
248	0xbe0769d7	-0.13223968
249	0xbdc20cfe	-0.09475134
250	0xbd81064e	-0.06300031
251	0xbcf947a9	-0.030429678
252	0x3b32612a	0.0027218559
253	0xbe5bbb40	-0.21458149
254	0xbe4331d4	-0.19061977
255	0xbd78ebe9	-0.060771856

network.2.bias f4 [32]
0	0xbecf99a7	-0.40546915
1	0xbfe60024	-1.7968793
2	0xbe4b8d4e	-0.19878122
3	0xbe38a6e6	-0.18032417
4	0xbf214227	-0.62991565
5	0xbfabf468	-1.3433962
6	0x3f144cb6	0.5792955
7	0xbff42387	-1.9073342
8	0xc025af68	-2.588831
9	0xbefdc96b	-0.49567732
10	0xbfaa0de3	-1.3285488
11	0xbf41da2c	-0.7572353
12	0xc07808ea	-3.875544
13	0xbe6b211f	-0.22961853
14	0x39db0764	0.00041776442
15	0xbe20a2ec	-0.1568715
16	0xbf8c8b9a	-1.0980103
17	0xbf35641f	-0.708559
18	0xbedde3a8	-0.4333775
19	0xbd9efac5	-0.07762674
20	0xbee20fb8	-0.44152617
21	0xbc10d5eb	-0.0088400645
22	0x3f38cd21	0.72188
23	0xbf07fb12	-0.5311748
24	0xbe1843f5	-0.14869674
25	0xbdd27c7c	-0.1027765
26	0xbf5152c9	-0.81766945
27	0xbe36368f	-0.1779425
28	0xc024d37d	-2.5754082
29	0xbfc165c3	-1.510918
30	0x3f98e271	1.1944104
31	0xbf8b6d44	-1.089272

network.4.weight f4 [1, 32]
0	0x3e3a91b7	0.18219648
1	0x3fb9dafe	1.4519956
2	0x3c57e4d2	0.013177114
3	0xbd41178c	-0.047141597
4	0x3ea5c0e5	0.3237373
5	0x3f6c3a0b	0.92276067
6	0xbe152020	-0.14563036
7	0x3f5c02ef	0.85941976
8	0xbf74f8e8	-0.956923
9	0x3f6a981c	0.9163835
10	0xbf2ab027	-0.6667504
11	0x3fa87b3b	1.3162607
12	0xbf0ebc2f	-0.55755895
13	0x3caa4869	0.020786481
14	0x3f26a66d	0.65097696
15	0x3dda5ee9	0.10662634
16	0xbf20efcd	-0.62865907
17	0xbe6840dc	-0.22680992
18	0x3f115f92	0.56786454
19	0xbf01819e	-0.50588405
20	0x3e8620ed	0.26196995
21	0xbd4fa3dc	-0.050693378
22	0xbf32a64e	-0.6978501
23	0x3eadb4c7	0.33926985
24	0x3d4cc1fb	0.04998968
25	0x3d93f396	0.07224195
26	0x3ef93e67	0.48680422
27	0xbf2c0fe8	-0.6721177
28	0xbee7e0ed	-0.45288792
29	0xbeefdd28	-0.46848416
30	0xbf369aa5	-0.7132972
31	0x3deeb6b7	0.11655944
